…
        "outputId": "0ba9bf88-6587-4d1e-ff30-27057f244b4c"
      },
      "execution_count": 56,
      "outputs": [
        {
          "output_type": "stream",
          "name": "stdout",
          "text": [
            "Requirement already satisfied: torchsummary in /usr/local/lib/python3.12/dist-packages (1.5.1)\n",
            "----------------------------------------------------------------\n",
            "        Layer (type)               Output Shape         Param #\n",
            "================================================================\n",
            "            Conv2d-1           [-1, 16, 28, 28]             416\n",
            "              ReLU-2           [-1, 16, 28, 28]               0\n",
            "         MaxPool2d-3           [-1, 16, 14, 14]               0\n",
            "            Conv2d-4           [-1, 32, 14, 14]          12,832\n",
            "              ReLU-5           [-1, 32, 14, 14]               0\n",
            "         MaxPool2d-6             [-1, 32, 7, 7]               0\n",
            "            Linear-7                   [-1, 10]          15,690\n",
            "================================================================\n",
            "Total params: 28,938\n",
            "Trainable params: 28,938\n",
            "Non-trainable params: 0\n",
            "----------------------------------------------------------------\n",
            "Input size (MB): 0.00\n",
            "Forward/backward pass size (MB): 0.32\n",
            "Params size (MB): 0.11\n",
…
